Information:
- Running with GPU GTX 1070
- Standard size: 60x60
- Train: 0.9 | Test: 0.1 | Filters_layer_1: 64 | Filters_layer_2: 64 | Filters_layer_3: 64

============================================

Model: "sequential"
_________________________________________________________________
Layer (type)                 Output Shape              Param #   
=================================================================
conv2d (Conv2D)              (None, 50, 50, 64)        1792      
_________________________________________________________________
max_pooling2d (MaxPooling2D) (None, 25, 25, 64)        0         
_________________________________________________________________
dropout (Dropout)            (None, 25, 25, 64)        0         
_________________________________________________________________
conv2d_1 (Conv2D)            (None, 23, 23, 64)        36928     
_________________________________________________________________
max_pooling2d_1 (MaxPooling2 (None, 11, 11, 64)        0         
_________________________________________________________________
dropout_1 (Dropout)          (None, 11, 11, 64)        0         
_________________________________________________________________
conv2d_2 (Conv2D)            (None, 9, 9, 64)          36928     
_________________________________________________________________
max_pooling2d_2 (MaxPooling2 (None, 4, 4, 64)          0         
_________________________________________________________________
dropout_2 (Dropout)          (None, 4, 4, 64)          0         
_________________________________________________________________
flatten (Flatten)            (None, 1024)              0         
_________________________________________________________________
dense (Dense)                (None, 128)               131200    
_________________________________________________________________
dropout_3 (Dropout)          (None, 128)               0         
_________________________________________________________________
dense_1 (Dense)              (None, 43)                5547      
=================================================================
Total params: 212,395
Trainable params: 212,395
Non-trainable params: 0
_________________________________________________________________
None

Epoch 1/25
552/552 - 72s - loss: 2.6137 - accuracy: 0.2570 - val_loss: 1.5439 - val_accuracy: 0.5121
Epoch 2/25
552/552 - 71s - loss: 1.3398 - accuracy: 0.5597 - val_loss: 0.6857 - val_accuracy: 0.8212
…
