Information:
- Running with GPU GTX 1070
- Standard size: 60x60
- Train: 0.9 | Test: 0.1 | Filters_layer_1: 64 | Filters_layer_2: 96 | Filters_layer_3: 128

============================================

Model: "sequential"
_________________________________________________________________
Layer (type)                 Output Shape              Param #   
=================================================================
conv2d (Conv2D)              (None, 50, 50, 64)        1792      
_________________________________________________________________
max_pooling2d (MaxPooling2D) (None, 25, 25, 64)        0         
_________________________________________________________________
dropout (Dropout)            (None, 25, 25, 64)        0         
_________________________________________________________________
conv2d_1 (Conv2D)            (None, 23, 23, 96)        55392     
_________________________________________________________________
max_pooling2d_1 (MaxPooling2 (None, 11, 11, 96)        0         
_________________________________________________________________
dropout_1 (Dropout)          (None, 11, 11, 96)        0         
_________________________________________________________________
conv2d_2 (Conv2D)            (None, 9, 9, 128)         110720    
_________________________________________________________________
max_pooling2d_2 (MaxPooling2 (None, 4, 4, 128)         0         
_________________________________________________________________
dropout_2 (Dropout)          (None, 4, 4, 128)         0         
_________________________________________________________________
flatten (Flatten)            (None, 2048)              0         
_________________________________________________________________
dense (Dense)                (None, 128)               262272    
_________________________________________________________________
dropout_3 (Dropout)          (None, 128)               0         
_________________________________________________________________
dense_1 (Dense)              (None, 43)                5547      
=================================================================
Total params: 435,723
Trainable params: 435,723
Non-trainable params: 0
_________________________________________________________________
None

2021-04-10 21:25:20.510575: I tensorflow/compiler/mlir/mlir_graph_optimization_pass.cc:180] None of the MLIR Optimization Passes are enabled (registered 2)
Epoch 1/25
2021-04-10 21:25:21.838756: I tensorflow/stream_executor/platform/default/dso_loader.cc:49] Successfully opened dynamic library cudnn64_8.dll
…
